2023 Competition/Team_GPUfree/09b8acb07eb8c51448745a14a85e036acaf334cf/model.onnx (onnx, 39397 bytes, 9 tensors)

encoder.conv_head.0.weight f4 [16, 3, 3, 3]
000000 26 cf b8 be 38 9f e8 3c f2 c0 00 3e 74 31 12 3e
       -0.36095542 0.028396234 0.12573603 0.14276677
000010 65 46 ca 3e 16 03 2a 3e 29 f5 75 3f 29 aa ab 3e
       0.39506832 0.1660274 0.9607721 0.3352826
000020 4a dc 18 be be be 21 3e a8 16 71 3e 0b e9 04 be
       -0.14927784 0.15795419 0.23543799 -0.12979524
000030 c6 71 bb 3f 58 e7 39 be 05 df d6 bd 92 62 99 bf
       1.4644096 -0.18154657 -0.10491756 -1.1983206
000040 37 0d b7 3e a0 8b 6d 3e 69 5a 75 bd 37 b8 54 be
       0.3575227 0.23197794 -0.059900675 -0.20773397
000050 d2 d6 2f bf 86 47 86 bf d1 7e 4f bf 86 a2 bf bc
       -0.68687165 -1.0490577 -0.8105288 -0.023392927
000060 b0 6f 85 3d 2d 77 b7 be 28 a4 ea 3c 90 5d fe 3e
       0.06515443 -0.3583311 0.028642729 0.49680758
000070 a8 98 79 3f 47 93 2d 3e 27 74 13 bf 4c 19 4e 3d
       0.9749856 0.16950713 -0.5759911 0.050317094
000080 c9 51 5b bc ea 8e ab 3d 11 31 fe bd e8 eb 10 3e
       -0.013386198 0.08376868 -0.124117024 0.14152491
000090 8d 83 99 be c5 74 08 bf 50 6f df 3d 7c cd df bf
       -0.29983178 -0.53303176 0.10909903 -1.7484584
0000a0 b7 25 36 3f 4b d2 32 be 55 e3 b8 be 0c 05 8a be
       0.711513 -0.17463033 -0.3611094 -0.26956975
0000b0 17 0f 52 3e da dc 0c 3f f5 a3 aa bf 18 9b b8 be
       0.20513569 0.5502449 -1.3331286 -0.36055827
0000c0 bf d4 4f 3e fd 0a 01 40 43 bc f4 3e f2 23 78 3d
       0.20296 2.0162957 0.47799882 0.060581155
0000d0 27 6c 32 3d b3 45 f9 bd c5 51 06 3e d7 c4 b9 3e
       0.043560173 -0.12171497 0.1311713 0.3628299
0000e0 7b ef 3b bd 30 57 c1 3e 06 35 f6 3f b7 fd 7c 3e
       -0.045882683 0.3776183 1.9234931 0.2470616
0000f0 a2 39 15 3e 3d 46 4d 3d 6f 29 17 3e c4 6a d8 3e
       0.14572766 0.050115813 0.147619 0.42268956
000100 be 14 65 be 53 e3 af 3e e4 60 9f 3f 34 ce 04 3f
       -0.22371194 0.34353122 1.2451444 0.5187714
000110 84 57 82 bf 74 cb 67 3e 77 ba bc 3f 4d 3b e9 be
       -1.0182958 0.22636205 1.4744405 -0.45553055
000120 8f 21 8e be 2b 48 af 3f 35 6d a9 be 4b e5 e8 bd
       -0.27759978 1.3693899 -0.3309113 -0.11371859
000130 1a fd 5d 3f 47 8c 89 3f 0f 1c 18 3d 85 57 1d bf
       0.8671433 1.0745934 0.037136134 -0.6146167
000140 53 92 94 be 88 28 fd bd 41 40 04 be fa ba 51 3f
       -0.29017887 -0.12361246 -0.12915136 0.8192593
000150 b2 4e 12 3e d6 93 ac be 39 6f 64 3d 90 4e ea bd
       0.14287832 -0.3370654 0.055770133 -0.11440766
000160 d1 32 27 be da 23 8b be f7 bb 34 bf 0e 18 8d 3f
       -0.16327979 -0.2717579 -0.7059931 1.1022966
000170 af 25 ef 3e c8 a3 45 3f be e9 4c be 87 30 4a bf
       0.46708438 0.77203035 -0.2001104 -0.78980297
000180 97 4b 29 3f 51 c8 15 bc 15 26 cb 3e 05 52 18 be
       0.66130966 -0.009141997 0.39677492 -0.14875038
000190 47 8c ca 3e c2 20 ef 3e 39 ce 54 bf 6e f6 48 3f
       0.39560148 0.4670468 -0.8312717 0.7850102
0001a0 0e bb 4e 3f d0 fb ba 3e 13 15 62 3e 48 09 d2 bd
       0.8075417 0.36520243 0.22078352 -0.102556765
0001b0 48 d8 88 3f b2 ee e5 3e 37 07 b2 be b4 e3 6b bd
       1.0691004 0.44908673 -0.3477113 -0.0575902
0001c0 d2 77 ba be a0 f4 0b 3e 74 a1 07 be a5 95 2b bd
       -0.3641954 0.13667536 -0.13245183 -0.04189076
0001d0 48 cb 18 3e f8 f4 0c 3f dc 30 32 3f 59 59 0b 3f
       0.14921296 0.5506129 0.69605803 0.5443321
0001e0 a3 ef d5 bd 68 d6 af bf bf cc db be c0 47 46 3e
       -0.10446098 -1.3737307 -0.42929646 0.19363308
0001f0 45 80 b8 bf b9 f5 8b be 97 8d ed 3d e2 c4 5c bb
       -1.4414145 -0.2733591 0.11599272 -0.0033686687
000200 9a bf dc 3e fe 1d 06 bf 84 be 45 3e ae 52 99 3b
       0.4311493 -0.52389514 0.19310957 0.0046790456
000210 06 12 1a 3d 57 01 c1 3b e4 92 3d be b7 d0 07 be
       0.037614845 0.0058900523 -0.18513066 -0.13263212
000220 a0 bc 98 be a3 5a 09 bf 3a d9 20 bd d9 d0 30 3e
       -0.2983141 -0.53653926 -0.039269663 0.17267169
000230 43 ee bf bd 82 8e 34 3e b0 a3 dd 3d be 45 b5 3c
       -0.09371617 0.17632487 0.108222365 0.022127982
000240 b6 05 87 be b3 2d 85 3f 62 f5 4c 3f f2 ca 23 bd
       -0.26371545 1.0404571 0.80061924 -0.039988466
000250 92 07 8e bf 3f 54 38 bf 5c 6b 2a 3d c7 57 69 3e
       -1.109606 -0.7200355 0.041606292 0.2278739
000260 de 90 07 3e 41 7a 04 be a8 5e ad be a8 8a 8c 3f
       0.13238856 -0.12937261 -0.3386128 1.0979815
000270 a2 e4 92 3d 37 00 da 3f 93 23 b2 3f 86 9f 20 be
       0.071725145 1.7031316 1.3917106 -0.15685853
000280 1d 5f 79 bd 04 7c ae 3d 8f 5a 2c 3e 2c 24 3b 3f
       -0.060881723 0.08519748 0.1683142 0.7310207
000290 5b 75 7e 3e 5b 8a f7 3b dc b0 5c 3f 11 c3 aa 3e
       0.24849455 0.007554335 0.86207366 0.3335195
0002a0 74 1f ad 3e 2c 08 f5 bd 1c e2 d9 bd a8 87 cf 3d
       0.3381306 -0.11964449 -0.1063883 0.10133296
0002b0 1e 3e a6 bd ea 0d ee 3d c4 b3 1b bf d0 68 49 3f
       -0.08117317 0.11623748 -0.60821176 0.78675556
0002c0 76 36 ab bf 6a 40 cb 3d ff 95 6f 3e 0a e5 96 be
       -1.3375995 0.099243954 0.23397063 -0.29471618
0002d0 c0 52 95 bf e9 c5 73 3b ea 57 8b be ca 77 97 3c
       -1.1665878 0.003719682 -0.2721551 0.018489737
0002e0 e8 36 d0 bf d9 97 b9 3f 33 76 92 3d 6b 4c 60 bf
       -1.6266756 1.4499465 0.07151451 -0.87616605
0002f0 86 10 d5 bd dc 5b 94 3d 6d 1a 55 3f bd 71 1b 3f
       -0.10403542 0.07244083 0.8324345 0.60720426
000300 55 9c 47 3e 3a 1d b3 3e 43 a8 48 bd d1 93 ed bc
       0.1949323 0.34983236 -0.048988592 -0.029001148
000310 0d e9 6d 3e 8e 67 58 bc 03 1b 77 bf 85 10 4f 3e
       0.23233433 -0.013208283 -0.9652559 0.20221145
000320 64 f6 80 3f de 8b ca 3e a7 45 4c bf f8 70 26 3f
       1.0075192 0.39559835 -0.7979378 0.65016127
000330 9c 1b 94 bd 3b 62 1c 3f 9c 46 24 3e e0 ae a0 3f
       -0.072318286 0.6108739 0.1604256 1.2553368
000340 8f 9d 9f 3f a8 4b 7c 3a c3 3d 39 3e b3 1b 18 3e
       1.2469958 0.0009624311 0.18089966 0.14854316
000350 1a 82 88 be 56 7b 88 be 2c e5 10 3e 48 e3 68 bd
       -0.2666176 -0.26656598 0.14149922 -0.056857377
000360 1b ea 5c 3d c1 27 e4 bd 03 a4 08 bd 26 6e 93 3e
       0.053934198 -0.11140395 -0.03335954 0.28794974
000370 8f fa 6c 3f 7d c3 ad 3e 9c 45 10 3e 98 16 17 3f
       0.9256982 0.33938208 0.14089054 0.5901885
000380 ff 13 8a bc 24 02 91 be 39 dd 1e bf f7 a7 08 3e
       -0.016855238 -0.28321946 -0.6205631 0.13345324
000390 42 f8 2c 3e 7d bc d3 3e 96 12 12 bf c9 f5 56 bf
       0.16891578 0.41354743 -0.5705961 -0.8396879
0003a0 fc 52 24 bf 79 69 a2 3c 46 0e d7 3e 85 3a 52 bf
       -0.64189124 0.019825684 0.42003077 -0.82120544
0003b0 c9 c6 ff 3e 6e dc 37 be b1 1e c8 be 65 c0 b7 be
       0.4995635 -0.17955181 -0.39085916 -0.35888973
0003c0 b7 09 8d be 80 77 eb 3d 15 c1 e4 3f bd 7d a7 bd
       -0.27546474 0.11497402 1.7871424 -0.081782795
0003d0 84 60 e9 3e 94 35 47 be e2 d0 c8 3d 68 f7 91 3f
       0.45581448 -0.19454032 0.09805466 1.1403627
0003e0 a6 2d 32 be 63 73 1a 3e 69 d9 2f 3e 30 88 74 3d
       -0.17400226 0.15083079 0.17172779 0.05970019
0003f0 5b ac 50 bf c8 32 b6 3f 0c ef da 3e e5 e1 a2 ba
       -0.81512994 1.4234247 0.42760503 -0.0012426941

encoder.conv_head.0.bias f4 [16]
000000 fe f9 0b be 2e 22 4c be af ed a7 bd d7 92 9b bc
       -0.13669583 -0.19934914 -0.081996314 -0.018990917
000010 ac 10 02 be 13 d1 3e be c5 30 06 be a1 a8 5d be
       -0.12701672 -0.18634443 -0.13104542 -0.21646358
000020 3b e9 28 be 12 ec 9b be 8a c9 ab bd f0 dd 8d be
       -0.1649522 -0.30453545 -0.0838805 -0.27708387
000030 1a 34 2c be 69 e8 91 bd 25 7f 26 be 26 fd c2 bd
       -0.1681675 -0.07124407 -0.1625944 -0.095209405

encoder.conv_head.1.res_block_core.1.weight f4 [16, 16, 3, 3]
000000 35 40 71 be fa 46 05 3e be 19 9f bd d4 0e ed 3d
       -0.2355965 0.13015357 -0.07768582 0.11575094
000010 d0 23 6a 3c 89 ed 22 bf c2 5c 86 be 43 e3 12 3e
       0.014290765 -0.636437 -0.26242644 0.14344506
000020 a7 3e 69 3b 5c ea 2c bd 73 1f 8d 3e d7 25 53 3c
       0.0035590322 -0.04221569 0.27563056 0.01288744
000030 e0 e4 c7 be ec ab 1c 3e 14 c6 ac 3e be 91 e9 3e
       -0.39041805 0.15299958 0.33744872 0.45619005
000040 f6 96 d3 3e 71 c1 7e 3d 3c 13 d8 be 33 86 14 3e
       0.41326112 0.0621962 -0.42202175 0.14504318
000050 fb 3f 62 be bd 08 3f 3e cb 0a 0b be 07 66 24 be
       -0.22094719 0.18655677 -0.13578336 -0.16054545
000060 01 f7 b3 be fe a5 2f be 26 c8 6c 3e 0d 75 3d 3e
       -0.35149387 -0.17153165 0.23123226 0.18501683
000070 d0 ac 3e be be 5c 49 be 88 d0 fd bd 42 30 12 be
       -0.1862061 -0.19664285 -0.1239329 -0.14276221
000080 4c 89 88 bc 39 94 36 bf a6 4d 22 3d c3 82 15 3e
       -0.01666703 -0.7131992 0.039624833 0.14600663
000090 0c a6 cb 3b 16 88 ce 3e f7 8f 13 be 11 08 01 be
       0.0062148627 0.403382 -0.14410387 -0.12600733
0000a0 6d 71 2c bd e9 12 10 be d4 4a a0 bd 24 5c 80 3d
       -0.04210036 -0.14069714 -0.07826772 0.062675744
0000b0 2c 2c af be 9b 4b ea be b1 bb 4b 3d 3e 31 24 3e
       -0.34213388 -0.45760807 0.049739543 0.1603441
0000c0 ed 4a b9 3e 27 e5 88 3e ed 3e ab 3d 66 d5 74 be
       0.36189976 0.2673733 0.083616115 -0.2390953
0000d0 11 fb c1 be 86 90 07 bc f5 cf 55 bd 39 db ee bd
       -0.3788686 -0.008274203 -0.052200276 -0.11662907
0000e0 9f ea 2c bd e7 c4 c8 3d 6f 52 1c 3e 4e 9e 58 be
       -0.04221594 0.09803181 0.15265821 -0.21154138
0000f0 b4 74 94 be 6a 3c 79 3d b4 e0 16 be ed 39 00 be
       -0.28995287 0.06084863 -0.14734155 -0.12522097
000100 b2 56 02 bf 83 49 3f be f5 a7 4f 3e 88 23 e8 bd
       -0.50913537 -0.18680386 0.20278914 -0.11334902
000110 68 43 22 3d 83 4f 45 be ae 94 16 bd 5f 15 7f 3e
       0.039615065 -0.19268613 -0.036762886 0.24910496
000120 78 1a 02 3f 7e 41 93 3e 96 89 c9 be 92 0e b8 3d
       0.5082164 0.28760904 -0.39362782 0.08987154
000130 17 92 47 be e6 17 39 bf f7 fb 1e 3e 60 76 6b 3e
       -0.19489323 -0.7230209 0.15525804 0.22994375
000140 61 a9 1f bd b4 74 ba 3e 5e a4 8a bd 5f 6e 45 3e
       -0.03897989 0.36417162 -0.06769632 0.19280384
000150 af 01 22 bf a8 f0 fd 3d bc ab 05 3c 0e 2b 19 3f
       -0.6328382 0.12399417 0.00815862 0.5983132
000160 65 d6 30 3e 7e c9 dd 3e e8 86 61 be 5b 0f 92 be
       0.17269285 0.4331779 -0.22024119 -0.2852734
000170 c8 c7 51 be 89 1a 25 3e f4 16 35 be b8 94 25 3e
       -0.20486367 0.16123404 -0.17684537 0.16170013
000180 56 58 2e 3e 36 75 3e bd ef 7e 0c 3e 69 70 cd be
       0.17025885 -0.0464985 0.13720296 -0.40124825
000190 cf 68 f9 3d a3 ef 58 be a0 8e b8 3d 2e 47 aa 3e
       0.12178194 -0.21185164 0.090115786 0.3325743
0001a0 fe ff 6c be 6c 1b 4f be d2 58 b8 3c e5 7a fe bd
       -0.23144528 -0.20225304 0.02250329 -0.12425784
0001b0 f2 c7 42 bd c1 f1 c5 be 7e 6e da bc 6e 6b 0f 3f
       -0.047553964 -0.38661006 -0.026664015 0.560233
0001c0 ed 9d c7 3d 75 91 bb bc c0 3a 87 3e 9d 17 9e 3d
       0.09746919 -0.022896508 0.2641201 0.077193476
0001d0 cc c2 e1 bd ef 5d 47 3c d9 8f 42 be 24 74 96 be
       -0.11023483 0.012168392 -0.19000186 -0.29385483
0001e0 47 db 16 3e 63 5c 40 be 7f de 62 be 52 72 e8 3d
       0.14732085 -0.18785243 -0.22155188 0.1134993
0001f0 83 db 9b be ca 60 2e be 3c ff a8 3d a0 3e c7 bd
       -0.30440912 -0.1702911 0.08251807 -0.09728742
000200 46 27 ed 3d 2b 42 2c be c1 7e ad 3d e8 76 ee be
       0.115797564 -0.16822116 0.08471442 -0.46575093
000210 52 fc 2c 3c 07 ee c4 3e d3 09 3e be 69 4f 5c be
       0.010558205 0.3846285 -0.18558435 -0.21514668
000220 06 55 9f be 60 b3 a9 3d 23 2a c4 bb 67 54 fd bd
       -0.31119555 0.08286166 -0.0059864684 -0.12369614
000230 96 85 dd bc 12 61 41 be df 28 f4 be 85 7d 61 3c
       -0.027041238 -0.18884686 -0.47687432 0.013762836
000240 6d 59 64 be f6 2d b0 3e a0 ce 86 3e d5 12 16 3e
       -0.22299738 0.34410065 0.26329517 0.14655621
000250 97 37 fc 3d e2 ea 4e bf 32 b0 ae bd 58 ee a6 be
       0.123152904 -0.8082715 -0.085297 -0.32603717
000260 d5 10 80 bd e9 5e 00 3e 34 03 23 be 00 32 e3 be
       -0.062532105 0.12536205 -0.1591919 -0.44374084
000270 50 df af bd 2a 57 96 bf 14 28 93 be a7 9e 86 be
       -0.08587515 -1.174535 -0.28741515 -0.26292917
000280 8a 25 dc 3d fa 52 73 bd 6d f6 94 3d ac d4 80 3e
       0.107493475 -0.059405304 0.072735645 0.25162256
000290 ff 58 e8 be 42 79 cd be 93 b9 df 3e 8c a6 cd be
       -0.453804 -0.40131575 0.4369627 -0.40166128
0002a0 68 2c 2a 3d 29 98 f5 3e 55 e1 a1 3e 37 94 28 3e
       0.041546255 0.4796765 0.31617227 0.1646279
0002b0 1e 34 c1 3d ca 13 aa be 45 8b 40 bd d6 31 fa bd
       0.09433769 -0.33218223 -0.047007818 -0.12216537
0002c0 4a d7 31 3e a3 c5 23 bd db 7e 7b 3e c9 87 2e bd
       0.17367283 -0.039983403 0.2456011 -0.042609964
0002d0 b9 e0 75 3e f1 17 43 be d4 aa 90 be f5 97 74 3e
       0.24011506 -0.19052102 -0.28255332 0.23886092
0002e0 f4 68 28 be e0 be b3 bd ce bf 11 bc 4b 36 53 bd
       -0.16446286 -0.08776641 -0.008895827 -0.05156545
0002f0 ee e9 04 3d 6a ee dd 3e 03 4e d7 bd d0 41 b8 bd
       0.032449655 0.43345958 -0.105129264 -0.08996928
000300 15 ab e8 ba 82 31 0a be 5a d6 64 be 32 9a 24 bc
       -0.0017751182 -0.13495448 -0.22347394 -0.010046529
000310 82 31 92 be ca b1 55 bd 45 b6 c9 3d e1 da 4a 3e
       -0.28553396 -0.052171506 0.09849218 0.19810058
000320 09 2e 75 be eb 22 18 bf c3 2d 9b 3e 79 11 e2 bd
       -0.23943342 -0.5942828 0.3030835 -0.11038489
000330 bc a1 84 bd ba da f9 bd 2a f0 11 be 3c 0f 34 be
       -0.06476161 -0.12199922 -0.14251772 -0.17583936
000340 08 84 f8 bd ad 55 da 3b 0b 9c ac be bb 69 1f 3d
       -0.12134558 0.0066630454 -0.337128 0.03891919
000350 d3 80 14 bd c3 1a 8a bc 56 64 16 3e d4 0b 25 3e
       -0.03625567 -0.016858464 0.14686713 0.16117793
000360 48 86 9a bd 8c ac bf 3e 05 46 3b 3e 2d 77 dc 3b
       -0.07545143 0.3743633 0.18288429 0.006728074
000370 3a f9 08 bd 24 88 9e be ee da 23 bd 20 e7 a6 3d
       -0.033440806 -0.30963242 -0.04000371 0.08149552
000380 45 9c 63 3d 75 73 33 be 14 4d bd 3e 0f 43 8c 3e
       0.055568952 -0.17524512 0.36972868 0.27394912
000390 01 b0 44 3d 33 1a 1c bf bf 00 b6 be 0a d8 99 bf
       0.048019413 -0.60977477 -0.35547444 -1.2019055
0003a0 52 7e 99 be 93 dd 4d be 68 32 90 3d 6b 76 72 bf
       -0.29979187 -0.20104055 0.07040864 -0.9471194
0003b0 9a 26 d4 be 4c 23 a7 be c7 8f a3 be c9 1a 86 3e
       -0.414357 -0.32644117 -0.3194563 0.2619231
0003c0 25 07 c9 be 6c 40 c8 bd 1b 3f 95 bd d5 17 66 be
       -0.39263263 -0.097779125 -0.07287427 -0.22470029
0003d0 2d 11 78 bd ed a4 23 3e b3 b0 f6 3d 9f 75 00 3f
       -0.060563255 0.15980883 0.120454215 0.50179476
0003e0 88 df de 3e 10 83 a1 3e 89 e2 56 3e 80 5b 91 3e
       0.43529916 0.31545305 0.20984854 0.2839012
0003f0 2c 6b 07 3e 7d 05 51 3d 09 79 8a 3c fc 02 73 be
       0.13224477 0.051030625 0.016903417 -0.23731607

encoder.conv_head.1.res_block_core.1.bias f4 [16]
000000 50 e9 4d bc d8 57 d4 3a 09 03 0c bc 53 36 1a bc
       -0.012567833 0.0016200496 -0.0085456455 -0.009412366
000010 7b ce 32 bc 33 c1 be bb 09 73 f0 bb a2 13 46 bb
       -0.010913487 -0.005821371 -0.007337932 -0.0030224104
000020 06 b6 ed bb 7d 48 ac 3b e5 a1 f8 ba b2 fb 51 ba
       -0.007254365 0.0052576647 -0.0018969147 -0.0008010223
000030 c2 7d 6e bc b5 9d 1f ba d9 94 e3 bb 4d aa 03 bc
       -0.01455635 -0.0006088869 -0.0069452343 -0.008036208

encoder.conv_head.1.res_block_core.3.weight f4 [16, 16, 3, 3]
000000 ad 4c b8 3c 9b 25 1b bf 16 0a c2 be 76 f2 cb be
       0.0224975 -0.60604256 -0.3789832 -0.3983342
000010 64 04 e2 3e 59 42 21 be 15 95 37 3e d4 62 8f 3e
       0.44143975 -0.15747966 0.17927964 0.28005087
000020 9a c0 9b 3d 32 18 6c 3d c3 6f b5 bd 0f ef 1b 3e
       0.07605095 0.057640262 -0.088592075 0.15227912
000030 a1 4d 2d 3e b4 b6 35 be 7f ed 86 bd 4a b2 3f bf
       0.16924144 -0.17745477 -0.065882675 -0.7488142
000040 f9 fa be be b9 df 58 be 00 2b 9e be 7e cb da 3d
       -0.37300852 -0.21179093 -0.3089218 0.10683344
000050 dd 19 d7 bd d5 be a6 be f0 7e a0 bb 60 00 81 be
       -0.1050298 -0.32567468 -0.0048979446 -0.251956
000060 6d a3 64 be 81 c0 3d be b7 fa ae be 12 ad 62 bf
       -0.22327967 -0.18530466 -0.34175655 -0.88545334
000070 71 e3 1b be 54 34 e3 3d 43 b8 2b be 80 bf 23 be
       -0.15223481 0.11093965 -0.16769509 -0.1599102
000080 d9 72 33 bd ed 8c df bd 21 eb c4 3e 6b 4a aa 3e
       -0.0438107 -0.10915551 0.3846064 0.332599
000090 e0 a3 32 bf 69 8d a2 be 13 e7 d6 be 32 f1 e2 3e
       -0.69781303 -0.31748512 -0.4197317 0.44324642
0000a0 db 80 b2 3c 0d df 5a 3e 7d db 20 bf 14 50 10 bf
       0.021789959 0.2137415 -0.6283491 -0.5637219
0000b0 26 e1 e0 be dd 4d a8 be f9 29 c8 be 56 da d0 3c
       -0.43921775 -0.32871905 -0.39094523 0.025494736
0000c0 bb d0 8c bd e3 19 74 3c 8a 44 bd 3d 6b ac 98 3e
       -0.0687575 0.01489875 0.092415884 0.29819044
0000d0 63 f2 9b be 35 12 8b bd f7 65 b0 bc 70 73 17 be
       -0.30458364 -0.06790582 -0.021532996 -0.1479013
0000e0 3d de 25 bf cf 36 c9 be 71 f5 ed bc 2b 18 88 be
       -0.64792234 -0.39299628 -0.0290477 -0.2658094
0000f0 d9 9b 20 3d 6f 42 b9 be db f7 77 be 1f 2e 31 3f
       0.039211128 -0.36183497 -0.24215643 0.69211
000100 90 21 23 3c c4 df b3 3e 68 8e 67 be 5b e2 4c be
       0.009956732 0.35131657 -0.22612917 -0.20008223
000110 a0 3f a9 3d 55 c4 2b 3c 9e 74 96 3d b3 c9 e5 3e
       0.08264089 0.010483821 0.07346462 0.44880447
000120 ef a4 0f be 2d 64 80 3c b0 34 29 3d 05 cc ce be
       -0.14027761 0.015672768 0.041310012 -0.4039003
000130 61 55 84 bd 29 72 02 bf a7 fa 69 be eb 72 86 bd
       -0.06461597 -0.50955445 -0.22849523 -0.065648876
000140 b7 e1 9c be 22 e5 2e be 0d 50 c3 3e 9b 81 cd 3d
       -0.30640957 -0.17079595 0.3814701 0.10034486
000150 09 36 8d bd eb 09 2e 3c c5 4c 69 3c 53 52 23 bd
       -0.06895072 0.010622482 0.014239495 -0.039873432
000160 a2 c9 fb 3d 1e 66 11 3e 67 6f bd be be fe 8e bd
       0.12294318 0.14199111 -0.36999056 -0.06982182
000170 ef f6 0f be 94 95 6f 3e 65 40 a7 be ad 61 59 3d
       -0.14059041 0.23396903 -0.32666317 0.053071667
000180 f2 01 04 3d 64 80 1f 3e 60 ed 19 3e de ae 8f 3e
       0.032228418 0.15576321 0.15031958 0.280631
000190 8e be 1f bd 97 59 3c be 7f 61 b2 3e 80 8a 68 be
       -0.039000086 -0.18393551 0.3484001 -0.22709084
0001a0 8b 0e 41 3d ef c2 28 bc 52 94 88 be 85 a0 99 3d
       0.04713301 -0.010300382 -0.2667566 0.0750132
0001b0 34 52 5f bf 6d de 1e 3c 5d bc 81 3e 6a 79 8f 3e
       -0.87234807 0.009696585 0.25339022 0.2802232
0001c0 d5 ea c4 be 1e 99 97 bd 99 19 37 bf 1b f0 25 3e
       -0.38460413 -0.07402252 -0.71523434 0.16204874
0001d0 1b c0 a9 bd eb 1b 57 be 00 af 05 bf 99 9f 04 3d
       -0.08288594 -0.21006744 -0.52220154 0.032378767
0001e0 37 3c 93 3e fc 6c b7 be 7d 0e 2a be b7 b2 eb be
       0.28756878 -0.35825336 -0.1660709 -0.46034786
0001f0 8f 17 a2 bc e8 a9 92 3e e5 ae 87 be de fd 2c 3e
       -0.019786624 0.28645253 -0.2650062 0.16893718
000200 fb 09 06 be c9 3c 33 3e e0 cf b6 be ca aa b1 3d
       -0.13089745 0.17503656 -0.3570547 0.086751536
000210 0d 19 a3 3e 2d 4d 92 bd ab 4f c9 be bd e9 39 be
       0.3185505 -0.07143626 -0.39318594 -0.1815557
000220 5d 03 96 bd df 65 77 be 68 4d 08 be 0d 31 ac 3d
       -0.0732486 -0.24159954 -0.13310778 0.08407793
000230 2e c0 d5 3e c7 00 26 bf 18 7f b0 3e fd 28 92 be
       0.41748184 -0.64844936 0.34471965 -0.28546897
000240 8f 19 a3 bd 56 e5 60 bf 83 8a bf 3d a4 d5 ad be
       -0.07963859 -0.8784994 0.09352591 -0.33952057
000250 e9 8e bd 3e 77 b2 34 be 77 57 bb 3e 83 2b 23 3e
       0.37023094 -0.17646204 0.36590168 0.15934567
000260 7e 07 6e be 99 f1 b8 bc 9d 40 65 3e fe a3 4a be
       -0.23245046 -0.02257614 0.2238793 -0.1978912
000270 a4 f3 24 3e 89 a5 fc bd 0c 44 79 bd a7 82 cd be
       0.16108567 -0.12336261 -0.06085591 -0.40138742
000280 fd 69 ba 3b 33 2b fe bd 70 8c 41 3e b0 5d d7 3c
       0.0056889043 -0.12410583 0.18901229 0.02628979
000290 ef 2b 63 3e 45 cb 8c bd 1f 8f 74 bd ba 54 d4 3c
       0.22184728 -0.06874708 -0.059706803 0.025919307
0002a0 4c 74 8f bc 40 14 36 3e 4a 50 02 be ec 70 e7 be
       -0.01751151 0.17781162 -0.1272594 -0.4520334
0002b0 80 a1 a5 3d 05 7c 42 3d 61 82 32 be 9c 8d d0 bd
       0.08087444 0.047481555 -0.17432548 -0.1018326
0002c0 60 55 92 be 5a f1 bf be c2 c2 5e 3e 0a 2b 08 be
       -0.2858076 -0.37488824 0.21753982 -0.13297668
0002d0 d5 91 31 bf af 7f 88 bd 4c 40 9f 3e ca d7 0d 3e
       -0.6936315 -0.06664979 0.31103742 0.13851848
0002e0 79 ab 6a bd 9e ad 57 bd f2 57 b9 bd 92 28 e2 3d
       -0.057292435 -0.05265581 -0.09049977 0.110428944
0002f0 be c1 75 3e 28 af fe bb 84 d0 21 be 00 14 0a 3f
       0.23999688 -0.007772345 -0.15802199 0.5393677
000300 e1 bf 2d 3e 9f c2 06 bd de 88 cf bc f0 7e 3d be
       0.16967727 -0.03290045 -0.025333818 -0.18505454
000310 bf b5 18 bf 65 30 ef 3e 81 45 1d bf c0 28 d6 3c
       -0.5965232 0.4671661 -0.6143418 0.026142478
000320 4b cf e3 be 77 71 f8 be 05 0e 88 3d 46 d1 bd 3e
       -0.4449409 -0.48524067 0.06643299 0.37073725
000330 9e 20 4a 3e a3 43 4a be 6c 50 57 3e d1 3e fe 3e
       0.19739005 -0.19752364 0.21026772 0.496573
000340 b6 a5 bc be bd bf 05 3e e2 c4 2c be 8a e5 81 be
       -0.36845177 0.13061424 -0.1687198 -0.25370437
000350 d0 90 d1 3e b7 10 44 3e b2 5d 7b be 88 34 17 bf
       0.40930796 0.19147001 -0.2454746 -0.5906453
000360 45 24 63 bb 31 c5 41 be 0c 2e 76 bc 91 97 48 be
       -0.003465907 -0.18922879 -0.015025627 -0.19589068
000370 14 20 95 be ee 2e 27 3e 3a 41 c3 3e 97 ca 3f 3e
       -0.29126036 0.16326496 0.381357 0.18729626
000380 0f 06 33 3c e9 51 d4 bc eb b7 4c bd 25 7a 2a 3d
       0.010926737 -0.025917964 -0.049980085 0.041620392
000390 57 d4 e4 ba 5a 61 ab 37 45 93 5f 3e f2 63 30 bd
       -0.0017458302 2.0430121e-05 0.21833523 -0.043064065
0003a0 9c 4e 6e bd 29 e5 05 3d 9a 95 86 be 14 6a ea bd
       -0.058180436 0.032689247 -0.26286012 -0.11446014
0003b0 a3 82 75 be b7 63 04 3f 40 50 8b bd 6e 19 dc 3d
       -0.23975615 0.5171465 -0.06802416 0.10747038
0003c0 4e 5d 7f be f9 1f 98 3e 08 15 1a 3e 66 03 cc 3e
       -0.24937937 0.29711893 0.15047085 0.39846343
0003d0 e4 6f 87 3e 02 55 5e bd ae 3e 80 3e dc d2 1f 3e
       0.26452553 -0.05428029 0.2504782 0.1560778
0003e0 29 0b 2d be 17 a9 39 be a7 66 81 3e 60 a5 90 3c
       -0.16898789 -0.18130909 0.2527363 0.017656982
0003f0 de 09 ae be 5b 24 02 3d c4 c4 af 3e 33 17 3e 3d
       -0.33991903 0.031772953 0.34329808 0.046408843

encoder.conv_head.1.res_block_core.3.bias f4 [16]
000000 27 60 af ba 49 d5 c3 3b b2 81 f3 bb 68 f1 69 3c
       -0.0013380096 0.0059763533 -0.0074312324 0.014278747
000010 0a 24 82 3b 96 be 09 3b c2 6a 00 3b a6 b4 d0 bb
       0.0039715813 0.002101814 0.0019594883 -0.006369191
000020 e8 4d dc 39 f3 03 60 bb 8e f5 9a 3a ed e0 0d 3b
       0.00042019715 -0.0034182041 0.0011822449 0.0021648959
000030 66 4c 33 39 9e bc c6 bb 08 7b 9d bb fb 5f 5b 3b
       0.00017099231 -0.0060649654 -0.0048059262 0.0033473957

critic_linear.weight f4 [1, 784]
000000 68 a0 c0 ba 54 16 ab ba 7e 9f 46 b9 d1 39 89 ba
       -0.0014696242 -0.0013052919 -0.00018942167 -0.0010469501
000010 e1 97 2d ba 89 04 4a b9 3f e5 23 bb 37 58 a3 ba
       -0.0006622058 -0.0001926591 -0.0025008467 -0.0012462203
000020 9e f0 a6 ba 68 d9 3c b9 36 56 b4 ba 9d 61 1b ba
       -0.0012736504 -0.00018010067 -0.0013758603 -0.0005927326
000030 13 86 4e b9 71 df a5 ba 6b dd 5c 3a ee ba c4 b8
       -0.00019695637 -0.0012655092 0.0008425328 -9.380827e-05
000040 12 ac af b9 97 3c 7c 39 e4 4b 3f 39 b7 50 ff b9
       -0.00033506803 0.00024055164 0.00018243451 -0.00048697527
000050 fe 7d 33 ba 9f 83 4b 3a e3 43 3f ba 12 5e 5b b8
       -0.00068470824 0.00077634485 -0.00072961877 -5.230128e-05
000060 1e 64 28 ba 53 e6 42 3a 97 1e 1a 3a 2b 3f 59 3a
       -0.000642361 0.00074348337 0.0005879192 0.0008287306
000070 af fe 8b ba 4a ec 65 b8 d4 44 2a 39 3c 60 97 38
       -0.001068076 -5.4817916e-05 0.00016238104 7.218166e-05
000080 b8 4b 54 ba 44 3b 7b b8 94 bd 09 b9 c7 f0 68 39
       -0.0008098441 -5.989826e-05 -0.00013135961 0.0002221494
000090 ba 98 88 3a 96 70 89 3a e7 cd e7 38 8d 4b 07 b9
       0.0010421493 0.0010485824 0.00011053291 -0.00012902748
0000a0 47 f5 fa 39 2d 39 00 3a 9c 2e 8a 3a c5 10 74 39
       0.00047866462 0.00048913324 0.0010542455 0.000232759
0000b0 42 21 8c b9 8f b7 80 ba 48 22 c2 b9 dc 2e 82 ba
       -0.0002672766 -0.000982033 -0.00037028105 -0.0009932178
0000c0 8c ce c8 ba 04 1c 3d ba af 11 d8 39 b1 ee 5c 3a
       -0.0015320345 -0.00072139525 0.00041211906 0.0008427902
0000d0 6c ba ca 3a 3c 2f a0 3a 69 c4 18 39 c9 cb 80 3a
       0.0015466935 0.0012221108 0.00014569018 0.0009826358
0000e0 aa 51 27 ba de 0d 88 ba b4 03 08 b8 ba 08 c6 b9
       -0.00063827133 -0.0010380109 -3.2428376e-05 -0.00037772005
0000f0 38 05 81 39 75 76 9c ba d7 0e 81 ba 0d 02 11 ba
       0.00024608686 -0.0011937158 -0.0009846342 -0.00055316166
000100 a0 92 0d 39 2e 0d d7 b9 f4 f2 4d ba 5c 3f 4f b9
       0.0001350143 -0.00041017815 -0.0007856332 -0.00019764662
000110 70 9e 31 3a f9 f9 a1 b9 8b c1 34 ba fb 62 e8 b9
       0.0006775623 -0.00030894557 -0.0006895295 -0.00044324234
000120 4b 38 df b9 a3 4c 05 b9 4f 72 55 3a 6f 9d 0f b8
       -0.00042575816 -0.00012712418 0.00081423385 -3.424048e-05
000130 0a 6a 67 ba 38 b2 8b ba ec f7 50 ba 16 34 b6 39
       -0.0008827752 -0.0010657972 -0.00079715136 0.00034752552
000140 11 1d 75 3a dd 10 2a ba 3d 54 64 b9 70 b1 d3 38
       0.00093503395 -0.0006487498 -0.00021775156 0.00010094314
000150 38 6b 62 3a 9c a0 4c ba b2 c4 1f ba ea b0 1f ba
       0.00086371927 -0.0007805915 -0.00060946785 -0.0006091731
000160 9d 4c 57 ba 82 87 94 ba 56 8e bb ba 24 c4 7e b9
       -0.00082130154 -0.0011331888 -0.0014309387 -0.00024296396
000170 fd 68 c8 34 4f c1 63 ba 11 9a 18 ba fe ac 9a ba
       3.7329292e-07 -0.0008688168 -0.00058212975 -0.0011800823
000180 1e c6 be b9 aa 32 80 39 80 cf f4 ba b5 16 2a 39
       -0.00036387233 0.0002445181 -0.0018677562 0.00016220922
000190 2a 15 da 39 02 2c 21 3a 24 fa 07 3a 84 ba 59 3a
       0.0004159597 0.000614822 0.0005187115 0.0008305686
0001a0 4f 09 1f 3a f6 14 1a ba d3 38 71 3a 8d 34 5e 3a
       0.0006066756 -0.0005877757 0.0009201888 0.00084764586
0001b0 cf d6 3b 39 77 0b 73 b9 8b f2 ab 39 86 db 0e 3a
       0.00017913732 -0.00023178557 0.0003279637 0.00054495817
0001c0 76 e7 64 38 03 5f 67 3a 42 39 fc 39 d3 e5 93 3a
       5.4575e-05 0.00088261085 0.00048107846 0.0011283703
0001d0 61 4f 28 3a a2 b3 0b ba 02 4a 1b 3a 1b e7 74 ba
       0.000642052 -0.00053291966 0.0005923809 -0.0009342299
0001e0 3a 00 1c 38 e8 f5 8d 3a 9b a4 05 ba 02 ee 9a 3a
       3.719351e-05 0.0010830732 -0.00050980755 0.00118202
0001f0 5a 59 3f ba 2a 67 bb 3a 85 87 66 b9 db 67 8b ba
       -0.0007299386 0.0014297713 -0.00021984994 -0.001063581
000200 a1 4d 04 3a 6c 44 3a b9 75 6f e2 39 7c 64 d1 b9
       0.0005046968 -0.00017763831 0.0004318912 -0.00039938453
000210 e9 c1 40 b8 61 a0 d8 ba aa 97 02 ba 0a f6 3e 37
       -4.595696e-05 -0.0016527289 -0.0004981706 1.1382168e-05
000220 0a 6e 5c 39 9c f9 ab 39 14 05 93 39 c7 5f 34 3a
       0.00021021828 0.00032801635 0.00028041808 0.0006880727
000230 00 a6 11 ba 37 2e a4 b9 af ab 2c 39 da d8 bf 3a
       -0.0005556047 -0.0003131495 0.00016467155 0.001463677
000240 7b 2e 33 b9 2b ea 16 3a fe 78 75 3a 5b fe 7b 39
       -0.00017088086 0.00057569396 0.00093640375 0.0002403198
000250 15 f9 28 ba 7e 00 91 ba ab 36 71 3a 96 d3 56 39
       -0.00064458075 -0.0011062769 0.00092015666 0.00020487452
000260 e5 25 93 3a 15 5c 31 3b 4d e5 27 39 cb 07 f5 b8
       0.0011226503 0.0027062942 0.00016011782 -0.00011683962
000270 b7 0e 3e ba 1a 67 78 39 26 49 01 ba 70 4f dd 38
       -0.00072501175 0.00023689531 -0.00049318594 0.000105528976
000280 1d 95 d8 3a f6 f1 17 38 92 39 cd b7 f5 71 f9 b9
       0.0016523931 3.622655e-05 -2.4464713e-05 -0.00047577886
000290 da 27 78 b9 8e d3 e4 38 74 11 98 b8 86 5e 97 39
       -0.00023665969 0.00010911292 -7.251176e-05 0.0002887139
0002a0 de d7 11 b9 4e 13 97 39 40 55 88 3a 08 2e a7 39
       -0.00013908694 0.00028815347 0.0010401383 0.00031887018
0002b0 ff 18 27 3a 1e 54 72 b9 be b7 a5 3a 12 a6 f5 b7
       0.0006374269 -0.00023110255 0.001264326 -2.9283608e-05
0002c0 76 c5 68 b9 25 eb 2d b9 4f 7b e0 3a cc dd 03 3a
       -0.00022198804 -0.00016586164 0.0017126593 0.0005030304
0002d0 1d d8 1f b8 9d 13 a4 3a cb 91 1a 39 72 d9 ac b9
       -3.8109825e-05 0.0012518052 0.00014740897 -0.00032968406
0002e0 79 fc 3a 3a e1 8c ac 39 4b b1 0e ba 34 5e 88 ba
       0.0007132958 0.0003291136 -0.0005443289 -0.0010404051
0002f0 2d f9 4a 3a db 46 c9 ba ec 58 85 ba cf a4 60 ba
       0.00077428186 -0.00153562 -0.0010173596 -0.000856948
000300 1a c5 c3 39 17 41 10 3a 0a 7e 57 ba cc cb 0a 3a
       0.0003734015 0.0005502863 -0.00082203804 0.00052946503
000310 d7 91 65 3b 88 b1 9a b9 a6 9c 96 37 e6 22 8a b7
       0.0035029554 -0.0002950544 1.7954339e-05 -1.6467133e-05
000320 f6 16 4c ba 4d 00 02 3a 50 57 b2 3b ea e2 60 3b
       -0.0007785404 0.0004959151 0.0054425374 0.0034314939
000330 a3 db c4 b7 25 c7 a5 b9 c0 af 94 b8 84 f9 c5 b9
       -2.3467297e-05 -0.00031619627 -7.089926e-05 -0.00037760672
000340 7d 25 1b 3a 6e f5 9e 39 8d cc 6c 3a 3a 55 0b 3a
       0.0005918367 0.00030318968 0.0009033166 0.0005315129
000350 ab 3d 0d ba 7c dd aa 3a 95 35 61 ba 27 4d 97 39
       -0.00053879124 0.0013035978 -0.0008591053 0.00028858447
000360 0b 6f 2a 39 9a 1e cf 3a 79 fe 17 3a 78 f3 a9 ba
       0.0001625383 0.0015801967 0.0005798112 -0.0012966236
000370 d5 5b 15 b9 0e 97 dd 37 80 0f 2f b8 73 18 bc 3a
       -0.00014243957 2.6415593e-05 -4.1737687e-05 0.0014350548
000380 5d 76 c3 ba 57 0e 84 b9 01 16 bb 39 30 f5 12 3b
       -0.0014912594 -0.00025187686 0.00035683814 0.0022423975
000390 44 35 b8 3a 82 5a c7 39 0f 40 45 3b 4e 87 ac 3a
       0.001405396 0.0003802367 0.0030097996 0.0013162883
0003a0 9b a9 8c 39 ff d2 66 3a 08 ad 9d 39 72 75 8d 3a
       0.00026829247 0.00088052446 0.00030074292 0.0010792448
0003b0 20 5c ac 3a 7c 44 94 3a 9e 0b 30 bb 94 fd 21 3b
       0.0013150014 0.0011311914 -0.0026862393 0.0024717795
0003c0 b3 1c 24 3a 2f 31 39 3a 54 dd c9 b9 c4 ab 6d 39
       0.000626038 0.0007064519 -0.0003850261 0.00022666069
0003d0 c9 63 b9 3a bb 34 a2 3b cf 51 71 3b 5e 8c ea b9
       0.0014144118 0.0049501336 0.0036822443 -0.0004473654
0003e0 2c 00 6f ba 41 ac 30 ba 16 c5 48 ba d0 c7 85 ba
       -0.0009117152 -0.0006739535 -0.00076587626 -0.0010206643
0003f0 d0 24 51 ba ab 00 39 39 e8 45 07 39 b1 0f 92 39
       -0.0007978203 0.00017643224 0.00012900645 0.0002785898

action_parameterization.distribution_linear.weight f4 [4, 784]
000000 f5 bb 43 3c 49 4b 45 3d 57 d1 be bd 70 32 9a 3d
       0.011946668 0.0481675 -0.09317272 0.075291514
000010 92 2a 96 bd a1 c9 61 3c 2f 29 23 3e 55 2d b7 bd
       -0.073323384 0.013780982 0.15933679 -0.08944193
000020 9d 21 04 3d dd 07 56 3c 20 3d db 3c b6 4d 0e 3d
       0.03225862 0.013063398 0.026762545 0.03474208
000030 33 6d 9e 3d 2c c7 8b bd 6d 7a e7 bb fc ed 89 bd
       0.07735672 -0.068250984 -0.007064155 -0.06734845
000040 ad 5f 26 bc 24 7d 1d be da cd 0a 3c bf 90 eb bd
       -0.010154647 -0.15379769 0.00847193 -0.115022175
000050 ec a3 0d 3e 04 a3 10 3d 1f e5 09 be 74 6b 8b bb
       0.13832062 0.035311714 -0.13466309 -0.004254753
000060 76 f8 00 be c6 c2 e1 bd 43 e0 e7 bd 57 1a 0b 3d
       -0.1259478 -0.11023478 -0.113220714 0.033960667
000070 0c 37 21 bd 1b 5b 1c bd 16 0f 68 bd 15 ef f1 3d
       -0.039359137 -0.038172822 -0.056655012 0.118131794
000080 ef 45 58 3e 80 8e ae bd eb 9f 5c bd 8b 10 fb 3b
       0.21120428 -0.085232735 -0.053863447 0.007661884
000090 16 89 dc bd c3 ad e9 bc c0 6c 59 bd d2 d3 26 be
       -0.107683346 -0.028525239 -0.053082228 -0.1629174
0000a0 f3 da 2e 3d 32 35 49 bc c7 57 82 bb c7 69 91 3d
       0.042689275 -0.012280749 -0.003977749 0.071002536
0000b0 16 88 d6 bc 39 30 43 bd ee e1 c1 bd 73 25 a3 bd
       -0.026187938 -0.04765341 -0.09466921 -0.07966127
0000c0 0e d4 6b ba df 20 a1 bc da ba 5d bd b2 0c bf 3c
       -0.0008996137 -0.019668994 -0.054133274 0.023321483
0000d0 66 a2 e4 bd ec ed ef bd 09 a0 50 be 0e f8 c0 3c
       -0.111637875 -0.11715302 -0.20373549 0.023555782
0000e0 16 e9 f4 bc 35 10 b1 bd e3 2f 8c bd c8 29 c9 bc
       -0.0298963 -0.08645669 -0.06845071 -0.024556056
0000f0 07 a0 01 3d 83 5f 53 bc ed d7 d7 bd e2 d0 84 3d
       0.031646755 -0.01290119 -0.105392314 0.06485154
000100 ad 7c de bc 70 f1 22 bd 8f 2f 3a bd 8b 8c f2 3c
       -0.02715906 -0.039781034 -0.04545551 0.029608032
000110 aa 28 3f be 8c af 52 bd 7d 88 93 bc bf 21 cb bb
       -0.18667856 -0.051436946 -0.018009419 -0.006199091
000120 f6 88 b7 bd 37 31 ed bb 34 f3 20 bd 49 d4 42 bd
       -0.0896167 -0.007238533 -0.039294437 -0.047565732
000130 7b 6b c9 bd c7 8e a4 bd dd e6 e2 bd d8 21 bf bc
       -0.098349534 -0.08035045 -0.1107919 -0.023331568
000140 30 72 bf bd f2 8c 52 bc d7 45 0a be df 8b dd bd
       -0.093479514 -0.012850987 -0.13503204 -0.10817694
000150 87 e9 fa bc b1 86 ee 3c 73 3e d1 3c a0 24 8d bd
       -0.030628933 0.02911696 0.025542473 -0.06891751
000160 a7 3f 11 be 52 44 b7 3d ce 93 ec 3c 08 fa f4 3c
       -0.14184438 0.08948578 0.028879073 0.02990438
000170 a3 c0 88 bd 4c dc e4 bc e8 c6 93 bd 24 f1 11 be
       -0.066773675 -0.027937077 -0.07215673 -0.14252144
000180 d5 fa 35 be f3 e2 37 bb 19 42 55 bc b5 92 06 be
       -0.17771466 -0.0028058856 -0.013016247 -0.13141902
000190 09 dc 7d bc 3f 2c 08 3d 0c 68 b6 bd d9 e2 21 3d
       -0.015494355 0.03324532 -0.08906564 0.03952298
0001a0 79 20 20 3d 84 d8 80 3d 89 18 31 bd cd 0c 92 bd
       0.03909347 0.06291297 -0.04323629 -0.07131348
0001b0 a3 2b 40 bd 07 25 69 3d a5 5b 31 be ae 26 0a bd
       -0.046916615 0.056920078 -0.17320116 -0.033728294
0001c0 09 d2 90 3d 08 4e b3 3d cc 26 dd 3c 11 2b b0 bd
       0.07071311 0.08755118 0.026996039 -0.08601964
0001d0 48 84 29 3d 10 b2 be bc f0 8b 01 3d 4f 24 90 3d
       0.04138592 -0.023278266 0.031627595 0.07038175
0001e0 73 fb d2 bd 4d 49 bc ba 60 e5 22 bd 41 9e 3b be
       -0.103018664 -0.0014365107 -0.03976953 -0.18322088
0001f0 7a 09 af bd dc eb 3f be 4c f2 e0 bb 2a a8 02 bc
       -0.085467294 -0.18742317 -0.0068648215 -0.007974664
000200 46 04 b9 3c da b5 e5 bd 9d 64 dc bd d4 c7 b7 bd
       0.022585046 -0.11216326 -0.10761378 -0.08973661
000210 6e dd f5 bc da 0e 8f bc 62 4b 95 bd bd 35 72 3d
       -0.030012812 -0.017463136 -0.07289769 0.05913328
000220 75 f4 ba bd b5 5e 19 3c 0e b4 08 be a9 73 77 bd
       -0.09128658 0.009360959 -0.13349935 -0.060413036
000230 71 c9 6c bd 25 4d 0a 3d 45 d7 fb bc c2 a2 eb bd
       -0.057809297 0.033764977 -0.030742297 -0.11505653
000240 e4 ee 69 3d 51 6e 32 bd d1 7d 35 be 5b 93 23 bd
       0.05711259 -0.043562237 -0.17723776 -0.03993545
000250 19 f6 50 3c ad c7 4c bd 20 6f 10 bd e9 53 e6 3d
       0.012753987 -0.049995113 -0.035262227 0.11246473
000260 25 69 9f bc fb b4 fe bd 24 35 18 be 9f a4 22 bd
       -0.019459317 -0.12436863 -0.14864022 -0.039707776
000270 14 54 66 3d aa 24 9d 3d 0a ae 9e bc 79 60 62 bd
       0.056232527 0.07673009 -0.019370098 -0.055267785
000280 bb 48 df bd 6b 8c ba bd 10 60 32 3c 6a 3f 7a 3c
       -0.10902544 -0.09108814 0.010887161 0.015273908
000290 63 0d 54 3c 85 e9 e3 bc cc de b1 3d dd d9 0b bd
       0.012942645 -0.027821312 0.08685073 -0.034143317
0002a0 92 76 ad bb ea cf d8 bd 74 19 04 be c5 bc c8 bd
       -0.0052936757 -0.105865315 -0.12900335 -0.0980163
0002b0 a0 1b ac bd 73 f9 76 3d 1d 9f 80 bd 28 08 38 bd
       -0.084037066 0.060296487 -0.062803484 -0.044929653
0002c0 e8 5f f8 bd 8e d2 82 3d 80 d4 54 bd d5 0f f3 bb
       -0.12127668 0.06387816 -0.05196047 -0.007417659
0002d0 0a 5c 75 3b 91 c0 ce bd 2b bf 05 3c 37 7a b2 3c
       0.0037438893 -0.10095323 0.008163254 0.021786792
0002e0 9f a0 0a be 98 3d f2 3d 3e 80 41 bd e8 ed be 3c
       -0.13537835 0.11828154 -0.047241442 0.023306802
0002f0 e1 1b e7 bd 35 bf de bc 75 da c1 bd 49 4f fb bc
       -0.11284614 -0.027190784 -0.094654955 -0.030677455
000300 fc b9 e2 bd 0e 73 cf bd 8b 3a 69 3c d0 39 2a be
       -0.1107063 -0.10129367 0.014235149 -0.16623616
000310 01 4d 80 bd 05 8c 94 bd f0 0f a2 3b 23 75 e7 bc
       -0.06264687 -0.07253269 0.0049457476 -0.028254097
000320 17 bc 96 bd 50 be 15 bd d9 2e 00 3d 1c 25 99 bd
       -0.07360094 -0.03655845 0.031294677 -0.07477781
000330 f6 ff 97 bd ad cb eb bd 11 68 fa 3c d2 89 0e bd
       -0.074218675 -0.115134574 0.0305672 -0.034799404
000340 b0 07 fc 3c 6a 71 7f 3d ad d9 13 be 1c 21 94 3c
       0.030765384 0.06236402 -0.14438505 0.018082194
000350 5b 47 30 be 6b fc 50 3e 0f 5d 90 bd 30 0e 40 3c
       -0.1721472 0.2040879 -0.070489995 0.011722133
000360 1d c6 f3 3d b0 46 c9 bd 63 d6 8a bd da c4 59 3d
       0.119030215 -0.09827936 -0.06779172 0.053166248
000370 c1 ce 35 bd 80 ed 44 bd d8 e0 c7 3c 04 a0 83 bd
       -0.04438663 -0.04807806 0.024399206 -0.06427005
000380 53 24 cf bd 3d 06 e9 bc e7 23 eb 3b 43 3f 25 bd
       -0.1011435 -0.028445357 0.0071759108 -0.040343534
000390 80 cd ec bd 47 2c a8 bd df 86 cf bd 57 15 dc bc
       -0.115626335 -0.0821157 -0.101331465 -0.026865644
0003a0 7d 2e 45 3d 36 00 c3 bd be 9b 9b bc 0b 15 a1 3d
       0.048140038 -0.095215246 -0.018995162 0.07865342
0003b0 95 39 8a 3c 0f 66 95 bd 8a fe 39 bc ca a6 3f 3d
       0.01687316 -0.07294857 -0.011352191 0.04678992
0003c0 a2 8e 59 bd e8 55 4a bd 2b 8e bc bd 66 bf ef bd
       -0.05311454 -0.049398333 -0.09206804 -0.11706428
0003d0 09 69 b1 bd 20 ad a6 bb 1c 8e 9c bb 40 dd 12 bd
       -0.08662612 -0.005086556 -0.004777683 -0.03585553
0003e0 77 56 b4 bc f3 8d 5b bd 16 9b 90 3d ee cd 90 3b
       -0.022013886 -0.05360217 0.0706083 0.00441908
0003f0 00 e6 a0 bd eb ab 14 bd 9f a2 30 bd c9 9c 80 bb
       -0.07856369 -0.036296766 -0.043123838 -0.0039249402

action_parameterization.distribution_linear.bias f4 [4]
000000 da 8d 01 bd 6c ca 10 3d b3 12 5e 3b d6 47 b0 bc
       -0.03162942 0.035349295 0.0033885657 -0.021518629
